PushBlockGame/Assets/Models/HedefeYonelme-32258.onnx (onnx, 79278 bytes, 8 tensors)

network_body._body_endoder.seq_layers.0.weight f4 [128, 8]
000000 0b 71 35 3e 4c e5 2d bd 25 c7 7b 3e 16 68 4a 3e
       0.17718904 -0.042455003 0.24587686 0.19766268
000010 3c c4 39 bf c3 b6 20 bf 09 fe da be b8 9c 1d bd
       -0.72565055 -0.6277887 -0.42771938 -0.038479537
000020 ce b8 24 3e df c4 1c bf ff ca 3b 3e fd ed 2e be
       0.16086122 -0.612379 0.18339156 -0.17082973
000030 d8 ba 14 bf eb 9d 76 bc 93 72 df be 28 fb d2 3e
       -0.580976 -0.015052299 -0.436421 0.41207242
000040 cc 7f b2 be b9 96 cc be 62 e1 04 3f ba dd 6e be
       -0.34863126 -0.39958742 0.51906407 -0.2332677
000050 61 50 8b 3f 41 5d 40 3f 43 6f ca 3e 6e e3 11 3d
       1.0883905 0.75142294 0.3953801 0.035617284
000060 ed e1 f5 3e 0d 50 40 bd 09 ec 20 bf bf ab 8c be
       0.4802393 -0.046951342 -0.6286016 -0.27474782
000070 87 61 1c 3e 0e 2c f3 bd 10 8d d8 3c 24 e4 00 be
       0.15271579 -0.11873637 0.026434451 -0.12587029
000080 07 2d 88 be 7f d5 3a be 1f d5 0d 3d 40 58 f0 bd
       -0.26596853 -0.18245505 0.034627076 -0.11735582
000090 bc e6 b1 3e f3 47 b4 bd f0 b0 16 bf 1f 81 5f 3e
       0.3474635 -0.08802786 -0.58863735 0.218266
0000a0 ea 1f a0 3d a4 ad da bd 65 9a e7 bd 57 fc f0 3d
       0.07818587 -0.106776506 -0.11308745 0.1176688
0000b0 eb 12 64 be 08 f9 88 3d f3 0e eb bb b5 b6 9d 3b
       -0.22272842 0.06688124 -0.007173413 0.00481304
0000c0 d4 23 60 3d 04 36 09 bf 24 75 89 be 3b 9c 83 be
       0.05472167 -0.53598046 -0.26847184 -0.25705132
0000d0 f6 50 e3 3e d9 e9 eb 3e 07 9a a7 be ec c5 0a bf
       0.44397706 0.4607685 -0.327347 -0.54208255
0000e0 e2 d0 04 bf 0a 8d 6a 3e 0a 79 53 3f 21 2c 87 be
       -0.5188123 0.22905365 0.82606566 -0.26400855
0000f0 74 2f 1d be 2c a5 d6 3e 07 52 92 3c 5e 54 ba 3d
       -0.15350133 0.4192289 0.01786138 0.09098123
000100 54 8e eb 3d 88 c6 94 3e fb 1e 4e 3e 9a c1 90 3e
       0.11501756 0.29057717 0.20129006 0.28272706
000110 6e 0c 00 3d 48 cb 4a be 5d 0c 51 3c 2f 05 37 3e
       0.031261854 -0.19804108 0.012759295 0.17873071
000120 b7 66 6d 3e 3e 8b 2b be 85 2f 07 bf 6a bb 71 3e
       0.23183714 -0.16752335 -0.52806884 0.23606649
000130 17 98 41 3e 8e 33 13 3f 5c da 9b be 92 15 11 3f
       0.18905674 0.5750054 -0.30440032 0.5667354
000140 2f d5 de be f7 44 c5 3e e2 22 b3 3e fa eb 37 bf
       -0.4352202 0.38529179 0.3498755 -0.71844447
000150 5d 9a 0f bf 33 0f a9 3e 0b 81 06 bd 7b 58 1d 3f
       -0.56094915 0.3301941 -0.03283791 0.61463135
000160 ff 06 08 bf 45 05 b1 be 20 5c d5 3e a1 28 86 be
       -0.53135675 -0.34574333 0.41671848 -0.26202872
000170 c7 9d 65 3f 3a ab e2 3d 11 67 8e be 84 10 33 be
       0.89693874 0.11067815 -0.27813008 -0.17486769
000180 29 20 7e 3e 58 89 0a 3e 22 b8 0e 3f 0c 55 c9 3e
       0.24816956 0.13528955 0.55749714 0.39322698
000190 63 5b f7 3e 2d 43 de be 00 6d 05 be 2c 8a 3f 3e
       0.4831191 -0.43410626 -0.13029861 0.18705052
0001a0 ce a9 69 bc af 3e f9 3d 45 f8 5a 3e 05 16 b5 bd
       -0.014261676 0.12170159 0.2138377 -0.088420905
0001b0 ad 1c 9f 3d 05 a7 e7 bd c2 95 07 bf c3 3b 09 be
       0.07769141 -0.11311153 -0.5296289 -0.13401704
0001c0 c8 1d 03 3f cc 00 92 3e 4f 29 aa bd 92 7a 16 be
       0.5121732 0.28516233 -0.0830866 -0.14695194
0001d0 4a a1 57 3e a8 29 44 bf a9 62 c5 be 05 17 39 be
       0.2105762 -0.7662606 -0.38551834 -0.18075188
0001e0 00 c1 64 be 67 d9 77 3f 3d 14 b2 3d bd 30 c7 3d
       -0.22339249 0.96816105 0.086952664 0.09726093
0001f0 b1 e7 ea 3e da b6 37 bd e6 ef 8d be 98 45 a3 3e
       0.45879892 -0.044852115 -0.2772209 0.31889033
000200 aa 57 dd 3e b4 07 2e 3e 15 a7 cb 3d 56 d2 5c 3d
       0.43230945 0.16995126 0.09943978 0.05391153
000210 ea 44 25 be dd 76 c7 3e 7d e3 36 3d c7 9f 7e 3d
       -0.1613957 0.38957873 0.044650543 0.062164094
000220 2a 5b 07 be ab 64 3c bb b1 0e 7d be 25 46 d7 be
       -0.1321837 -0.0028746526 -0.24712636 -0.42045704
000230 62 e7 d1 3e 82 5b ee 3d 22 7a 13 bd ba 0d 06 3e
       0.40996844 0.116385475 -0.036005147 0.13091174
000240 4f 9a 6e 3e 74 e9 9b bd 75 d8 0f 3e 0a bb 4d 3e
       0.23301052 -0.07612887 0.14047416 0.20090881
000250 76 65 24 bf 3a 9e 8a 3d 43 7a e0 be 24 d2 3f bf
       -0.6421732 0.067684606 -0.43843278 -0.74930024
000260 e8 76 1d be d9 4f 12 3e ff fb 24 be 95 8f 8f 3e
       -0.1537739 0.14288272 -0.16111754 0.28039232
000270 8e cb 22 bc e1 b2 dd 3e 10 3c 03 3e 66 8d e6 be
       -0.0099362265 0.43300536 0.12815881 -0.45029753
000280 c1 e7 14 3e 55 8a 87 be a2 37 39 3d 49 14 7a be
       0.14541532 -0.26472726 0.04521907 -0.244218
000290 b6 81 d8 3d 8b db 8a be 1e 2b 46 bd f0 34 5b bd
       0.105716154 -0.27120623 -0.048380964 -0.053517282
0002a0 3d 47 ef 3e 70 4b 60 3e 33 db e0 be 59 d7 92 bc
       0.46734038 0.21903777 -0.43917236 -0.017924951
0002b0 c1 2b 9c 3d 07 72 84 be c0 d0 41 bd 03 43 2c 3e
       0.07625533 -0.25868246 -0.04731822 0.16822438
0002c0 72 e2 bc be 9c 87 b3 be d9 2b fe 3e dd d4 f0 bd
       -0.36891514 -0.350644 0.49642828 -0.117593504
0002d0 af 34 19 3e fb e2 71 3e 77 44 bc 3e 3f d0 f3 bd
       0.14961503 0.23621742 0.36770985 -0.11904954
0002e0 ec 76 d2 3e d1 5a 46 bf 42 eb d4 be ce 11 94 bd
       0.41106355 -0.77482325 -0.41585737 -0.072299585
0002f0 1d e7 5c be f6 ad d2 3e 31 6f 37 3f a3 83 9a be
       -0.21572538 0.41148347 0.7165404 -0.30178556
000300 49 82 fc 3d 0b a8 06 bf b9 2e 88 bc 13 1d 1a 3e
       0.123295374 -0.52600163 -0.016623842 0.15050153
000310 f8 22 14 bf 47 18 c3 bd 8b fc 41 3e 5a b9 cc be
       -0.5786586 -0.09526115 0.18943994 -0.39985162
000320 4a 67 84 3c 86 b3 44 be cc c3 22 3d a9 a7 2c bf
       0.016162533 -0.19209108 0.039737508 -0.6744333
000330 bd f6 3c 3f 9a 41 72 3e f8 8d 86 bd 27 c9 3c bc
       0.7381399 0.23657838 -0.06570047 -0.011522568
000340 c0 85 8c be 10 d5 9a be fb 4d 9a be 22 a3 2d 3e
       -0.27445793 -0.3024068 -0.3013762 0.16956761
000350 2d f4 b1 bd 4b 71 8f 3e 47 59 f7 bd 5b 16 d4 be
       -0.08689151 0.28016123 -0.12077575 -0.41423306
000360 22 c2 69 bd e6 df 6a be b4 6a 9a 3e 77 a9 9d 3e
       -0.057069905 -0.22936973 0.30159533 0.30793354
000370 71 0c 24 bf ec 82 e1 bd d3 65 19 be 99 ab 6b be
       -0.64081484 -0.110112995 -0.14980249 -0.23014678
000380 2b b6 28 bc 62 fd a9 3b d6 94 c4 3e c2 ac fe be
       -0.0102973385 0.0051876763 0.38394803 -0.4974118
000390 f8 0f db 3e 39 14 bb be 75 c1 50 3e 7c 39 0c bf
       0.4278562 -0.36538866 0.20386298 -0.54775214
0003a0 b2 24 32 bf db cc 8b 3e d6 6f 87 be 8a 0c b5 bd
       -0.6958724 0.2730473 -0.26452512 -0.08840282
0003b0 d0 86 8a be 34 f8 eb bd 40 61 1e be aa 30 c7 bd
       -0.2705598 -0.1152195 -0.15466785 -0.09726079
0003c0 2a 9a e3 3e af b7 4a 3d 67 90 40 be fc 23 49 be
       0.44453555 0.04949158 -0.18805085 -0.19642633
0003d0 12 52 0e bf 41 22 a0 3e 0b f1 af be 8c e5 ca 3e
       -0.5559398 0.31276134 -0.3436359 0.39628255
0003e0 a2 64 3b bd aa d9 0f be 90 10 1f 3f 90 c9 b9 be
       -0.045750268 -0.14047876 0.6213465 -0.36286592
0003f0 ca b6 72 3d e3 7f bd bc fc 3e 5d bc 52 99 e9 bd
       0.059256352 -0.02313227 -0.013503786 -0.11406197

network_body._body_endoder.seq_layers.0.bias f4 [128]
000000 88 00 83 3b 95 6d a7 bc dc 3a c4 3c ac 16 f1 bb
       0.003997866 -0.020437995 0.023953848 -0.007357439
000010 c4 1e 1d bc 1e 84 78 bd 16 63 5c bd 94 05 1c 3d
       -0.009589855 -0.06067287 -0.053805433 0.038091257
000020 0c 0c 46 bc 2a ef 13 bd d5 f8 ee 3c 70 b6 b8 3c
       -0.012087833 -0.036116756 0.029171387 0.02254793
000030 6c 05 5a bc 6c 27 a2 3c 44 94 24 bd d3 15 1b 3d
       -0.013306957 0.019794188 -0.04018046 0.03786261
000040 b1 00 a3 bc 88 32 cb bd 24 45 0c bd 42 dd 82 bc
       -0.01989779 -0.099217474 -0.034245625 -0.015974645
000050 97 ea f7 3b 82 9a b3 bc 54 2b 37 3d d2 1c 2f bc
       0.007565807 -0.021924261 0.044719055 -0.010688024
000060 1c c4 ec bc 85 0a d9 3c 63 12 42 bd df c0 44 bc
       -0.028902106 0.026494274 -0.047380816 -0.012008875
000070 63 3f c4 3c f6 e8 86 bc 5e 4d 68 bd 05 6a 92 bb
       0.023956006 -0.016468506 -0.056714408 -0.004468205
000080 76 9e b9 3c 99 9b 0c 3d 5b 99 25 bd 54 94 07 3d
       0.022658568 0.034328077 -0.040429454 0.03310044
000090 8e c7 71 bd 94 3d 29 3d b7 96 10 bd 63 69 15 bd
       -0.0590282 0.04131849 -0.035299983 -0.036477458
0000a0 6b 46 b0 3c d1 d3 c4 3c 51 2c 78 bc 4a c1 80 bd
       0.021517953 0.024026783 -0.015147285 -0.06286867
0000b0 5a 75 d3 3c 38 7a b5 bc 62 4d 24 3c 90 ea 69 bc
       0.025812794 -0.022153005 0.010028215 -0.014277115
0000c0 25 0f 60 bc ea b7 5a 3d f6 53 49 bd c3 08 78 bd
       -0.013675486 0.05339805 -0.049152337 -0.06055523
0000d0 38 d8 87 bc 55 49 1d bd 53 72 55 bd a3 a9 4d bd
       -0.016582593 -0.038400013 -0.05211098 -0.050210606
0000e0 f2 f6 59 3c 68 bb a7 bc 6b c8 85 bd ba 6e 5a bd
       0.013303505 -0.020475104 -0.06532367 -0.053328253
0000f0 3b e9 0e bd a1 74 4a bd 09 16 0e bc b0 8f 01 bd
       -0.034890395 -0.049427632 -0.008672246 -0.03163117
000100 ff 30 1e bd 0f 24 ff bc 8e 93 8a bc 8a a3 cd 3c
       -0.038620945 -0.031145124 -0.016916063 0.025102396
000110 7d ea a2 bc 0c cc 31 3c 50 1c 9b bb 3c 4d 99 bc
       -0.019887203 0.010851871 -0.0047335997 -0.018713586
000120 41 dc 77 3c 4f 86 3f 3c 3c 4a 4c 3d 71 19 38 bc
       0.015128196 0.0116897365 0.049875483 -0.011236534
000130 49 f5 51 bd ce ed c8 bd 74 91 34 bc 90 a9 9b 3c
       -0.051259313 -0.09810983 -0.011021007 0.019001752
000140 92 f3 31 bd 24 ad 34 bd 1f c3 59 3d b9 55 2c 3d
       -0.043445177 -0.044110432 0.053164598 0.04207394
000150 1a 4c 44 3d 38 50 17 3d 4b b6 5d bd 34 f4 38 3d
       0.04792414 0.036941737 -0.054128926 0.045154765
000160 f1 8b 08 bc b5 f4 43 3d 35 83 24 bd e8 12 10 3b
       -0.008334146 0.047840793 -0.04016419 0.0021983925
000170 48 ef 26 bd 6a 76 08 bd 66 59 d4 bc 06 ef c8 3c
       -0.04075554 -0.033316053 -0.025921535 0.024528038
000180 e6 d7 a0 3c 2e 11 03 3d 41 00 ae 3c dd 62 7a bc
       0.019634198 0.031998806 0.021240355 -0.01528236
000190 dd 0e 79 bd 4b cf f3 3c f3 ba 1a 3d ae b2 21 bc
       -0.06080519 0.02976193 0.037775945 -0.009869261
0001a0 e5 03 a7 bc 44 8e b3 bc 85 ec 1f 3d 8f f0 00 bc
       -0.0203876 -0.021918423 0.039043922 -0.007869854
0001b0 95 6b b2 bb 33 1d 84 3b 4f da 3b 3d ed dc 57 bd
       -0.0054449537 0.004031801 0.045862492 -0.052700926
0001c0 08 36 6b bd 6a 8f 93 3d d5 16 34 bc 33 d0 44 bd
       -0.057424575 0.072050884 -0.010991772 -0.048050117
0001d0 04 98 98 bd 10 46 9e bc 55 a5 1c 3d 99 b6 71 bb
       -0.0745087 -0.019320518 0.03824361 -0.0036882518
0001e0 4d 76 6f ba ae d2 0e 3d 3b b1 82 bd d4 c3 aa bd
       -0.00091347547 0.03486889 -0.0638146 -0.083381325
0001f0 c1 13 b9 bc 4a 31 b3 bc e8 c3 c3 bc ef ba 31 bc
       -0.022592427 -0.021874089 -0.023897126 -0.010847791

network_body._body_endoder.seq_layers.2.weight f4 [128, 128]
000000 c7 2b 89 bc c7 d1 9f 3c ad 15 a5 3d f4 d4 85 3c
       -0.016744507 0.01950921 0.08060775 0.016336896
000010 6b 6d 8a bd c0 33 10 bd b3 4d 13 bc d3 25 c9 bd
       -0.06759151 -0.035205603 -0.008990693 -0.098216675
000020 7f 43 08 be ef 87 84 bd 88 93 c0 bd 87 41 5a bd
       -0.13306998 -0.0647124 -0.09403139 -0.053285148
000030 9b d5 e1 3c ed bd 8e bd 83 d6 6d 3d b8 42 ac bc
       0.027567675 -0.06969819 0.058065902 -0.021027908
000040 30 64 3e bd 9b 67 ab bd ea 5e e4 3c e1 0e b8 bd
       -0.046482265 -0.083693705 0.02787729 -0.08987213
000050 49 77 8a bc 5b de dd 3c 78 48 e3 bd f7 cc 71 3d
       -0.016902583 0.027083566 -0.11097807 0.05903336
000060 da cf 71 3e 1e cd 8f bd d1 90 84 3e 0c 5b eb 3d
       0.23614445 -0.07021545 0.25891736 0.11491975
000070 56 13 a3 3d 4d 1c 38 be 46 f6 fc 3d 2e 35 50 3c
       0.079626724 -0.17979546 0.123516604 0.0127079915
000080 d5 21 f2 3c 96 91 f4 bd d6 1a f3 3d 87 1d dd 3d
       0.029557148 -0.11941831 0.11870353 0.107966475
000090 e2 25 34 3c 52 4b 1d be 95 43 1a 3e 7c 42 b9 bd
       0.01099536 -0.15360764 0.15064843 -0.09045884
0000a0 32 58 3d be 15 80 7b 3a f7 e9 2c bd 4b 8c 1a bc
       -0.18490675 0.0009593976 -0.042215314 -0.0094328625
0000b0 58 87 f6 bd db 7a 58 3d ba c3 85 bc f7 e2 17 3e
       -0.120375335 0.05285154 -0.016328681 0.14832674
0000c0 ff ad 4f 3b a1 a7 10 3e a8 0a d6 3d a5 86 f4 bc
       0.0031689403 0.14126445 0.10451251 -0.02984936
0000d0 33 8c fa 3c b0 f1 29 bd 14 71 eb 3d 32 10 17 3e
       0.03058443 -0.041490257 0.11496177 0.14752272
0000e0 c8 18 87 bd 56 e8 23 3c 99 2c 6c 3d be bb 72 3d
       -0.065965235 0.010004124 0.05765972 0.059261076
0000f0 85 70 aa bd c1 6b 9f 3d 18 6c fc 3d a9 69 3a bd
       -0.08322243 0.07784224 0.12325305 -0.04551092
000100 7f ba 4d 3e 9d d2 1b 3e 67 c4 16 be 5a d7 39 3d
       0.20090674 0.15217061 -0.14723359 0.04537139
000110 51 8a 00 3e 5a b2 db 3d 72 84 47 bd 71 39 20 3d
       0.12552764 0.10727377 -0.048710294 0.03911728
000120 c3 56 ef bd f3 9d 10 bd 9d 72 2c bd cd f1 b1 3d
       -0.1168647 -0.035306882 -0.04210149 0.08688698
000130 11 40 d7 bd fc 91 04 3d 28 f9 b7 3d 49 04 d0 3d
       -0.105102666 0.032365784 0.0898307 0.10157067
000140 a5 33 2c 3d 11 68 ab bd 10 d8 b0 bc d9 f0 3a bd
       0.04204144 -0.083694585 -0.021587402 -0.045639846
000150 e2 0a 0d 3d 10 e1 ae 3d b0 05 cd bd 3b 45 4b bd
       0.034434207 0.08539021 -0.100108504 -0.04962657
000160 49 55 5e bd 26 51 08 be 45 08 61 3d d5 a3 7e 3e
       -0.054280553 -0.13312206 0.054939527 0.24867184
000170 6a 41 8c bd cc 6c 44 be 35 33 54 3d 6b 65 88 bc
       -0.06848414 -0.19182128 0.051806647 -0.016649922
000180 d8 d4 3c 3e 00 1f 8f bd ac e8 25 3e 27 43 f2 bc
       0.18440568 -0.06988335 0.16202039 -0.029573036
000190 85 79 d2 3d b0 be a3 3d 3a 84 88 bd 3e e0 64 3d
       0.10277084 0.07995355 -0.06665845 0.055877917
0001a0 fc e5 9a bd 2b 28 f6 3d a9 d6 55 3d 79 c9 80 be
       -0.07563397 0.1201938 0.05220667 -0.2515371
0001b0 14 e2 40 3c fb 85 52 3d 76 62 c5 3d dc 4d ad bc
       0.011772651 0.051397305 0.096379206 -0.02115529
0001c0 7c 81 d2 bc 8e 17 09 be 7b 70 e9 3c ea a1 4f 3d
       -0.025696509 -0.13387892 0.028496018 0.050691523
0001d0 52 dd 8c 3d db be 88 3d 29 6d 99 bd a7 91 46 3d
       0.06878151 0.06677028 -0.07491524 0.04847875
0001e0 d8 30 53 3c 60 7a a2 3d 80 2b 16 3d 72 11 ae 3c
       0.012890063 0.079334974 0.03666258 0.021248553
0001f0 45 79 11 3c fe e7 19 3e 06 ec 93 3d 5b a5 16 bd
       0.008879011 0.15029904 0.07222752 -0.03677879
000200 e4 ce ec 3d 2a f0 ba 38 ed 94 43 bd 0d 4f b1 3c
       0.11562899 8.913905e-05 -0.04774945 0.02164414
000210 fb fb 3b bd 62 f2 a9 bd 5a 67 1f bc c0 6f 5a bd
       -0.045894604 -0.08298184 -0.009729231 -0.05332923
000220 7e 42 3f 3d d2 9a 04 3e 64 e4 77 be b6 45 a4 3c
       0.04669427 0.12949684 -0.24208218 0.020052772
000230 d3 fb 39 bd ec e5 59 bd 57 ac ae 3c 3c ad 7b 3c
       -0.045406174 -0.053197786 0.021322412 0.0153611265
000240 76 88 e5 3d ae 45 62 bd 15 d8 50 3d f4 5f 1c 3c
       0.112076685 -0.055242233 0.050987322 0.009544361
000250 76 bc 82 3d 97 ab 26 3d d7 b3 2a be 38 b5 22 3d
       0.06383602 0.040690985 -0.16670166 0.039723605
000260 18 38 a1 3c e7 73 d0 bd 5e 55 1d be 31 22 48 bd
       0.019680068 -0.101783566 -0.15364596 -0.048860732
000270 3a 6b 9a bc 4b c3 74 bd b4 cf 63 3d 9c ae ba 3d
       -0.018849958 -0.05975656 0.055618003 0.09115335
000280 d2 f9 a2 3d af 99 58 3d e4 8b 7b be 52 68 be bb
       0.07957806 0.05288094 -0.24565083 -0.005810776
000290 e1 aa db 3b 7a 33 28 bd ab e1 2b bc b0 7b 6c bd
       0.00670372 -0.041064717 -0.010490815 -0.057735145
0002a0 67 73 02 bd b4 13 8a 3a ec 14 cf bc 96 1b 53 3c
       -0.031848338 0.0010534436 -0.025278531 0.012884995
0002b0 e0 35 bb bd 25 bd 0d bb 35 cc 01 3e cc 5f af 3d
       -0.09141135 -0.0021627632 0.12675555 0.08563194
0002c0 9c 4d 1d 3d 99 2b 92 bc 74 e9 2d bd 2e 7d d3 bd
       0.038404092 -0.017843055 -0.042458966 -0.103266105
0002d0 10 f1 39 bd 19 05 20 be c5 10 a0 3d 55 58 78 bc
       -0.04539591 -0.15626945 0.078156985 -0.015157779
0002e0 14 56 80 bc c0 8a ba bc 41 ad d8 bc 05 ee f2 3d
       -0.015666045 -0.02277124 -0.026449801 0.11861805
0002f0 37 a5 b6 bd 8b 53 fe 3d 4e ed 4f 3d 61 17 45 3d
       -0.08918231 0.12418278 0.05076342 0.048118
000300 85 26 0f 3e 04 c9 e0 bc d1 d3 1e be 03 74 44 3c
       0.13979538 -0.027439602 -0.15510489 0.01199055
000310 a2 39 1d 3e e9 28 77 3c 40 e3 16 be 3f 5a cf 3d
       0.15354016 0.015085437 -0.14735126 0.10124635
000320 46 f4 e2 bd ce 76 be bd 81 22 ee bc 3f 87 f2 3d
       -0.11081748 -0.09300004 -0.029069187 0.118422024
000330 e8 06 8c bd 29 4c e0 3d a2 3e e0 3c f4 1b 0f be
       -0.06837255 0.109520264 0.027373616 -0.13975507
000340 28 5f c8 bd f0 7b 8f 3d 5c ef 0d 3a 56 4c 67 3d
       -0.097837746 0.07006061 0.00054143905 0.056469284
000350 fb 57 a2 3b d7 8c af 3d f2 b3 70 3d d4 4d a2 bd
       0.0049543357 0.08571785 0.05876536 -0.07925001
000360 72 ce 73 3c 55 8b 92 bd b9 7e 86 bd 82 66 22 3e
       0.014880763 -0.07155482 -0.06567139 0.15859416
000370 48 2d 47 3d 0e 6a 93 3d 44 76 ab 3d 6f e5 ec bc
       0.048627168 0.07197963 0.08372167 -0.028917996
000380 d4 00 25 bc 22 f4 8a 3a 8c 72 b3 bc c0 f3 2c 3d
       -0.010070998 0.0010601322 -0.021905206 0.042224646
000390 81 81 85 3d 43 4a 46 bc 84 43 f9 bd de 91 0e bc
       0.065188415 -0.012102666 -0.12171081 -0.00870177
0003a0 01 73 ca 3d 6a 10 13 3e 44 93 be 3d ff 70 e0 3b
       0.098852165 0.1436173 0.093054324 0.0068494077
0003b0 32 28 d8 3c b0 eb 18 be 9c d2 45 be d2 5e a6 bd
       0.026386354 -0.14933658 -0.19318622 -0.08123554
0003c0 94 27 c3 3b 9a 57 53 be 66 89 3a 3d 97 66 97 bb
       0.005955646 -0.20638886 0.04554119 -0.004620384
0003d0 9f 18 b3 3d 45 90 44 bd 34 c9 4a be 72 4d f4 ba
       0.087449305 -0.04798915 -0.19803315 -0.0018638803
0003e0 ea c4 47 bd 89 0c 02 bc 19 74 fe 3d 2d 98 d3 bd
       -0.048771776 -0.007937559 0.124244876 -0.103317596
0003f0 9e a8 0b 3e 7e b1 e0 3d 2e 34 bb 3d d8 7e 55 3d
       0.13638541 0.10971354 0.09140812 0.05212292

network_body._body_endoder.seq_layers.2.bias f4 [128]
000000 83 58 e4 bc 50 c5 be bb 98 d3 a5 bc f9 c9 91 3c
       -0.027874237 -0.0058218613 -0.020242497 0.017796503
000010 24 90 f5 bc c1 6f 13 bc ee b4 b3 3c ca 6e f8 3b
       -0.029975958 -0.008998812 0.02193686 0.0075815665
000020 9e 36 bc 3c 3b 6a c8 3c 0c 33 35 bc 6d 33 df 3a
       0.022975262 0.024464717 -0.011059534 0.0017028876
000030 62 14 a8 bc 67 f9 fe 3b 5f 51 b2 bc 68 63 f6 3b
       -0.020517532 0.007781196 -0.021767316 0.0075191744
000040 8c 2b 2b 3d 3b 88 7f bc fa ec 4e 3d ad 62 74 3d
       0.041789576 -0.015596445 0.050518967 0.059664417
000050 f2 9d 4c bc 07 ce 92 3d ce 32 60 3d b7 b4 b7 3b
       -0.012488829 0.07168203 0.05473595 0.0056062597
000060 8e 69 35 3d 98 ff 60 3d 72 63 b3 3c 30 74 d8 3c
       0.044290118 0.054931253 0.021898005 0.02642259
000070 c2 83 bc ba 5f 60 a5 bc 1a a6 46 bd 6f 9c 09 bd
       -0.0014382529 -0.020187555 -0.04849825 -0.033596452
000080 40 da d0 bc 69 5d d5 bc f5 52 a8 3d 7b 94 b0 bc
       -0.025494695 -0.026045518 0.08218948 -0.021555176
000090 96 91 d9 39 8a 55 e5 3c ce 3a 3e bc 0a 6d e0 3c
       0.00041497935 0.02799489 -0.0116107 0.027395744
0000a0 6c 0b d2 3b 49 0e df bc 9a 63 25 bd 53 07 ec bc
       0.006410053 -0.027228491 -0.04037819 -0.028812086
0000b0 80 1a b6 3c d8 7d 1b bb 5d bc 5b 3c 16 76 ef bb
       0.022229433 -0.0023726132 0.0134116085 -0.007307778
0000c0 49 61 c4 3c 2b b9 b8 bb e1 3b 22 bd 1b 7e bf 3c
       0.02397217 -0.005637308 -0.039607886 0.023375561
0000d0 0a 1c e9 3c 31 ee b9 bc 87 ea 83 bc 3c 50 e1 39
       0.028455753 -0.022696586 -0.016103042 0.00042975124
0000e0 0d a1 06 bd ee fe d5 bc d6 94 02 bd 6c 7a 84 3c
       -0.032868434 -0.026122537 -0.031880222 0.016171657
0000f0 77 df 7f bc 97 b7 07 3d fe 5d 01 bb 9c a0 66 bc
       -0.015617243 0.03313407 -0.0019739862 -0.014076378
000100 07 58 74 3d 3f 44 5f 3c 67 b7 01 bd 26 10 1f bd
       0.059654262 0.013627111 -0.031669047 -0.03883376
000110 64 af d0 3b 27 97 10 3d ca e4 67 bc 89 72 a5 3b
       0.0063685644 0.0353004 -0.014153669 0.005049054
000120 3b 7b 21 3d e1 e9 4e 3c dd 47 84 3c 9c 90 18 bd
       0.039424162 0.012629003 0.016147548 -0.037247285
000130 a6 f0 55 bc d0 3a 65 bc b5 50 21 3c 3e 68 a7 3c
       -0.013057863 -0.013991073 0.009845902 0.020435449
000140 82 2e 60 3d d5 93 4b bb d1 71 a9 bc f6 3f ed bc
       0.054731853 -0.0031063457 -0.020684155 -0.028961163
000150 47 03 1e 3d 94 58 10 bd 2d 85 0a 3d f6 39 c2 3c
       0.038577344 -0.035240725 0.033818413 0.023709279
000160 34 4c e9 3c 7e 92 fe 3b d6 0a 6c bc 97 2f 45 3d
       0.02847872 0.007768928 -0.01440688 0.04814109
000170 ce d7 99 3c 34 18 aa bc 37 1b 9a 3c 89 1e 0a bd
       0.018779662 -0.020763494 0.018811805 -0.033720527
000180 ac bb 07 bc c0 45 6f bb ee 0c 60 3d 16 e6 10 bd
       -0.008284491 -0.003651008 0.05469983 -0.035375677
000190 ba 4c ae bb af 9b 19 3d 60 7c 01 3c f6 90 b6 3c
       -0.005319205 0.037501987 0.0079031885 0.02228592
0001a0 d8 ab c9 3c e1 41 89 3c c6 4f 34 3d c0 14 df 3c
       0.024618074 0.016755046 0.04402139 0.027231574
0001b0 7a df b8 bc 6a 7a e4 3c 86 85 79 bc 7f 83 d6 bc
       -0.0225675 0.027890403 -0.015229588 -0.02618575
0001c0 91 6e 1a bd 33 15 7e bc 59 fb 49 3c a3 94 f0 bc
       -0.0377031 -0.015507984 0.012327992 -0.02936775
0001d0 9c 7c 22 3b 98 82 8e 3b c6 b0 f9 3a b2 81 93 3d
       0.0024793511 0.004349064 0.0019049875 0.07202472
0001e0 48 32 f8 bc 2e a9 f0 bc 72 6b 0e bd 94 5d 1a bd
       -0.030297413 -0.029377546 -0.034770437 -0.0376869
0001f0 51 0d 3f bc 49 73 7b 3c 1c e3 55 bb 0a c4 09 3d
       -0.01166089 0.01534731 -0.0032636588 0.033634223

action_model._continuous_distribution.log_sigma f4 [1, 2]
000000 d5 8a b7 bd 27 55 79 bd
       -0.08962027 -0.060872223

action_model._continuous_distribution.mu.weight f4 [2, 128]
000000 cb fb 89 bc 4c f1 7c bc 10 67 82 bc 2e 09 5b bb
       -0.016843697 -0.015438389 -0.015918285 -0.003342222
000010 44 4b 09 3b 34 80 f9 bb 31 d8 02 3c a6 db 54 bb
       0.0020949403 -0.00761416 0.007986114 -0.0032479553
000020 d8 02 8e 3c 67 42 08 3a 71 f3 0a bd f1 ce 96 3c
       0.01733534 0.0005197883 -0.03392357 0.018409224
000030 3d 52 ac bc 63 96 ca bc 84 f3 dc 3a 05 88 3b bc
       -0.021035308 -0.024729913 0.0016857241 -0.011446004
000040 ae dc 86 3b 88 f0 e8 3b dc 08 2d 3c 90 b2 69 3c
       0.0041156625 0.0071087517 0.010561194 0.014263764
000050 23 94 bc 39 8c 4e a9 bb ee 4c 90 bc 61 93 85 3c
       0.00035968525 -0.005166834 -0.017614808 0.016305627
000060 7e 06 3c 3b d1 f8 9d 3c 12 d1 a1 bc b6 65 b0 3a
       0.0028690393 0.019283684 -0.019753013 0.0013458047
000070 d6 fd 1c bd c0 23 ed bc 64 38 21 bd 5c 34 14 ba
       -0.038328014 -0.028947711 -0.03936042 -0.0005653554
000080 3a 9a c9 bc 55 a7 f0 bc fb 4b 49 bc e7 19 a9 bb
       -0.024609674 -0.029376665 -0.012286182 -0.0051605585
000090 ba 0e dd 3b a8 b8 e8 3c 68 19 d5 bc dd 2d a6 3c
       0.0067461403 0.028408363 -0.026013091 0.020285541
0000a0 55 17 5c ba 48 f3 63 bc 07 18 ac bc f2 a9 f9 bc
       -0.0008395811 -0.013912983 -0.02100755 -0.030476544
0000b0 7f 71 19 bc 50 0d 14 3d 98 6d 73 bc ed 85 d5 bc
       -0.0093654385 0.03614551 -0.014857672 -0.026064837
0000c0 4e 85 2a 3c 04 6a 0d bc f2 7b 3a bd aa fe da 3c
       0.010407759 -0.008631233 -0.04552836 0.026732761
0000d0 fa 0f da bb 2a 19 cd 38 23 1a b7 bb ba 85 99 bc
       -0.0066547366 9.779849e-05 -0.0055878325 -0.018740524
0000e0 d1 fd 0c bd 04 98 d9 bb e8 68 53 bb bc 5a b6 bc
       -0.034421746 -0.006640436 -0.0032258574 -0.022260062
0000f0 80 a9 f0 39 96 5f 01 bb d7 16 df ba c0 c4 27 bd
       0.00045902655 -0.0019740812 -0.0017020357 -0.04095912
000100 fe d5 41 3c 71 78 25 3b b3 4f f5 bc 7c 1d 24 bd
       0.011830805 0.002524879 -0.02994523 -0.04006718
000110 47 a2 4d bc 86 75 9f 3c 95 c9 28 bc 40 9f a1 ba
       -0.012550897 0.01946522 -0.010301967 -0.0012330785
000120 69 a2 5a 3b c0 87 b7 bc cc f4 13 bd d5 19 db bc
       0.0033360964 -0.022403598 -0.03612213 -0.026745716
000130 bf be 16 bc f2 4e e8 bb 3b 81 6a 3c f9 13 80 3c
       -0.009200751 -0.007089489 0.0143130375 0.015634524
000140 d5 01 31 bc 2b d8 df 3a 88 c9 28 bd b3 0c 94 3a
       -0.010803659 0.0017077973 -0.04120782 0.0011295289
000150 66 12 17 3d db df 38 bd 7e 9a 8d 38 9e 12 8e 3c
       0.03688278 -0.04513536 6.75218e-05 0.017342862
000160 90 43 f2 3a 04 81 28 3c ba 62 9a ba 70 92 42 3c
       0.001848327 0.010284666 -0.001177869 0.011875734
000170 7a 44 c5 bc 16 a2 5d bc 72 db f8 3a 34 a7 72 bc
       -0.024080504 -0.013527414 0.0018986298 -0.014810372
000180 98 29 29 bc 48 24 e2 bb 5f 19 6a 3c e4 4f 74 bc
       -0.010324858 -0.0069012977 0.0142882755 -0.0149116255
000190 57 d0 09 3a 52 7e 44 3d 00 2e 0c 3c ca 2e 28 3c
       0.00052571803 0.04797203 0.008555889 0.010265062
0001a0 94 ed 93 bb ce c4 37 bc 32 b3 2b 3c 8a fb 75 3c
       -0.0045144055 -0.0112163555 0.010479735 0.015013585
0001b0 51 2e e2 bc ab da 06 3c db 0b f2 bc d6 a2 fa bb
       -0.027609976 0.008230845 -0.029546669 -0.007648806
0001c0 65 9b 35 bd fe 11 0b bc d4 a3 95 3c 4c c0 82 bc
       -0.04433765 -0.008488176 0.018266596 -0.015960835
0001d0 3a aa 7e 3b 9f 85 33 bc 60 09 61 bc b1 74 a0 bb
       0.0038858787 -0.010957151 -0.013735145 -0.004896723
0001e0 cc 9e e4 bb 5a 47 ce 3b 07 58 53 bc 7c 2c 2b bc
       -0.006976938 0.006295127 -0.012899405 -0.010447618
0001f0 3e 5d e6 bc da fc 0f 3b 51 39 a5 bb 88 69 2c bb
       -0.028120633 0.002197078 -0.005042233 -0.0026308019
000200 6a c8 85 bc c1 3a 21 bd 05 b7 3b 3c 7a 43 3a bd
       -0.016330916 -0.039362673 0.0114572095 -0.045474507
000210 dd 88 1a 3b 1b 0e 8d 3c 25 72 53 3d 54 ca 16 bd
       0.0023580112 0.01721864 0.05162253 -0.03681405
000220 c3 b9 0e bd 66 a4 11 bd 87 2d 27 bd cb 11 c3 bc
       -0.034845125 -0.035557173 -0.040814903 -0.023812195
000230 19 a1 e6 bc af 95 4e bd d2 1d f3 3c b2 4e 3f 3d
       -0.02815299 -0.05043572 0.029677305 0.04670591
000240 9c 9a a4 3d a0 35 60 3b e1 68 a2 3d a1 cd a8 3d
       0.08037302 0.003421165 0.0793016 0.082423456
000250 4e ab 2c bd 84 9e a1 3d 8f 73 83 bd 89 42 9a 3a
       -0.042155556 0.078915626 -0.064185254 0.0011769097
000260 48 b8 b5 3d 65 13 a4 3d 94 3f 47 3d 94 0d 5f 3d
       0.088730395 0.08011512 0.048644617 0.05445631
000270 eb 37 8b 3d 5d cc 0a bd 97 eb c6 bb ca 7f 05 3d
       0.06797775 -0.033886302 -0.006070565 0.032592572
000280 d7 34 0b bd 68 b4 8c bc ff bf b3 3d 6b dd a8 3b
       -0.03398594 -0.017175868 0.08776855 0.005153348
000290 79 d2 4c 3d a3 54 2f 3d 69 98 0d 3c 4f bc 87 3d
       0.05000541 0.042805325 0.008642294 0.06627714
0002a0 0c 02 32 3d e5 c9 59 3c 48 17 34 bc b0 91 84 bc
       0.043458983 0.013292764 -0.010991879 -0.01618275
0002b0 6c 29 37 3d 18 92 0e 3d 76 d7 96 3d d3 95 16 3c
       0.044717237 0.034807295 0.07365315 0.009190994
0002c0 48 62 84 3d aa e3 c5 bc 10 97 6b bc 03 81 56 3d
       0.06464058 -0.02415641 -0.014379278 0.05236913
0002d0 29 5f 1b 3d 9c 26 ee bc 2e 99 72 bc ed 7b 00 bd
       0.03793255 -0.029071145 -0.014807029 -0.031368185
0002e0 38 32 64 bb 4e f8 ba 3c d0 c8 07 bc 9d 3c 83 bd
       -0.0034819972 0.022823479 -0.0082876235 -0.064080454
0002f0 d1 c4 06 3d fa ff 84 3d 94 ce 16 3d 2f 2e 24 bd
       0.032902543 0.06494136 0.036818102 -0.040083107
000300 23 89 bd 3d 49 e1 43 3d 81 1d ee bb 51 3a 71 bc
       0.092546724 0.04782227 -0.0072667007 -0.014723376
000310 74 4c 81 3b f9 27 ae 3d 6e 50 18 bb 44 3a 1e bc
       0.0039458815 0.08503718 -0.00232413 -0.009657446
000320 b3 f4 37 bd c0 51 95 bd 48 f5 67 bd 87 ff 48 3b
       -0.044911098 -0.07290983 -0.056630403 0.0030669884
000330 44 aa cd bc 2d b9 3c 3d 97 b0 67 3d 13 ac 08 3d
       -0.025105603 0.046075035 0.056564894 0.033367228
000340 13 a0 88 bd 18 29 07 bd ea 01 16 bd 68 66 3e ba
       -0.06671157 -0.032998174 -0.03662292 -0.00072631845
000350 a6 d5 6d 3d c6 95 86 bc ea 80 65 bd 76 31 a9 3d
       0.05806508 -0.01642884 -0.056031145 0.08261387
000360 0b 4f ad bd 32 b1 01 3d f5 7e fe 3c 2f 07 b5 3d
       -0.08462342 0.031663127 0.031066397 0.08839261
000370 3f dc 43 3d f1 73 fa bc b3 7e 28 bd 2f 2d e8 3b
       0.047817465 -0.030572863 -0.041136455 0.0070854644
000380 00 e5 58 3c 29 51 c8 bc 91 d7 c5 3d ee 2a 9e bb
       0.013238192 -0.024452763 0.09660257 -0.004826895
000390 fd ae 67 3d f7 71 a5 bc a2 bd f3 bc c9 18 49 3d
       0.056563366 -0.020195944 -0.02975351 0.049095903
0003a0 30 6d 6e 3d 8a df 88 bd 86 2c 96 3d 46 88 81 3d
       0.058209598 -0.06683262 0.07332711 0.0632482
0003b0 d6 b5 48 bd b5 4f ad 3d ba 0f be 3c 40 8d 8a 3c
       -0.049001537 0.084624685 0.023200858 0.016913056
0003c0 84 23 86 3b be c5 87 3c 06 29 2d 3d 9e 6a 8e 3c
       0.0040935893 0.016573783 0.04227545 0.017384823
0003d0 c2 9b 28 bd 47 4b 1f bd b1 47 2e bd 3d a0 b1 3d
       -0.041164167 -0.03889015 -0.04254884 0.08673141
0003e0 6d b4 6c bc ce b9 9a bc 79 31 a9 bc 46 e5 5d bc
       -0.014447314 -0.018887427 -0.020653473 -0.013543433
0003f0 8a 8e 0c bd dd 06 ec 3c 53 2a ce bc aa e3 5f 3d
       -0.034315623 0.028811866 -0.025166666 0.054660477

action_model._continuous_distribution.mu.bias f4 [2]
000000 bc c8 a6 3c b8 0f 23 bb
       0.02035939 -0.0024881195

action_model._discrete_distribution.branches.0.weight f4 [1, 128]
000000 10 18 87 bb 3f 9e 66 3c 4d ca ba b9 f0 dd 91 3a
       -0.0041227415 0.014075815 -0.0003562741 0.0011128765
000010 ca bc 5a 3c 7d d8 b7 3a f7 22 71 3b ae ff 93 bb
       0.013350675 0.001402631 0.0036794522 -0.0045165634
000020 e8 78 3f 3c 9a e0 c7 bb bf 8a 10 bb e3 a1 20 bc
       0.011686541 -0.0060997726 -0.0022055355 -0.009804222
000030 90 04 1d bc fc f5 bc bc bd 6d 35 3c 00 b5 cb ba
       -0.009583607 -0.023066513 0.011073527 -0.0015541613
000040 69 45 a1 bb c7 7b ba 3b 34 62 c5 3a 0e 4d 0b ba
       -0.0049216044 0.005691025 0.0015059174 -0.0005313911
000050 72 ff af 3a 96 72 05 3c af 4a 94 3b 83 a7 a5 bb
       0.0013427569 0.008144995 0.0045255045 -0.0050553693
000060 db 2b 14 3c fb a1 80 bb 56 2a a3 bb 36 e2 94 3b
       0.009043659 -0.0039255596 -0.004979412 0.004543568
000070 bb de 09 bb ed af 64 b9 0d a9 91 3b 22 e2 0d 3c
       -0.0021037299 -0.00021809312 0.0044452013 0.008659871
000080 8a 07 91 ba 4c 1e a8 3a 20 85 60 bb ac e5 22 3b
       -0.0011064869 0.0012826412 -0.0034259036 0.0024856133
000090 e2 47 81 bc 72 85 62 bc 3c 05 86 39 8d e7 8c 3c
       -0.015781347 -0.013825761 0.00025562372 0.017200256
0000a0 02 cf af 3b f3 28 51 bc b8 82 51 bb fd d7 74 3b
       0.0053652534 -0.012766111 -0.0031968784 0.0037360184
0000b0 40 e0 bb 3a 83 87 78 bb c5 f2 58 bc e2 e1 8d 3c
       0.00143338 -0.0037922568 -0.0132414745 0.017319623
0000c0 c2 72 43 ba e4 30 27 3c 5b 5f 6d 3b 10 33 54 bc
       -0.000745576 0.0102045275 0.0036220166 -0.012951627
0000d0 00 ee 53 3c db 1d ab 3c f0 ed b5 bb c2 2a ca bb
       0.012935162 0.02088826 -0.005552046 -0.006169648
0000e0 c0 a0 97 bb f5 8f 3b 3c 0b f4 80 bb 96 0b 94 bb
       -0.004627317 0.011447896 -0.003935342 -0.0045179827
0000f0 95 ad 68 3b 87 af ca 39 df a5 0c bc 21 af b5 3b
       0.0035503854 0.0003865922 -0.008584469 0.0055445586
000100 cc 1e 37 3c 0f 18 d8 3b 8f d8 52 3c 00 31 ec 3b
       0.011176776 0.006594665 0.012869014 0.0072079897
000110 2b 66 7c 3b 4d 28 1b 3c 72 eb 77 bc 3b 9f c2 39
       0.0038513045 0.009470058 -0.015131818 0.000371212
000120 d3 42 86 bc 57 b8 11 3c 96 d9 25 3b 6b 94 5a bc
       -0.016389286 0.008894048 0.0025306693 -0.01334105
000130 ba f1 d6 ba e3 69 2a bc 70 d0 d4 3b 3d ca 66 bb
       -0.0016398944 -0.010401222 0.0064945742 -0.0035215758
000140 03 ab 61 3c ec f3 2a bc bd 80 ae bc 3b ad 6e bc
       0.0137736825 -0.010434132 -0.021301622 -0.014567669
000150 8c 3e 0d 3b 12 32 9a ba d7 42 28 3b d0 ad cd 3b
       0.0021552173 -0.001176419 0.0025674605 0.0062768236
000160 df c7 c4 bb 17 e6 10 bc 18 28 88 3b e5 2b 46 bc
       -0.006005272 -0.00884392 0.00415517 -0.012095426
000170 2a 1f d4 3a 19 88 1d 3b 77 8a 2f bb 09 eb 95 3b
       0.0016183604 0.002403742 -0.0026785412 0.0045751375
000180 13 13 55 3b b7 ae 6d bc c3 fb d2 38 10 0d 56 bc
       0.003251259 -0.014506987 0.000100604746 -0.013064638
000190 f0 cf 9c 3b 8a 2a e1 bb 0f 3e c1 bb df 2f 04 bc
       0.0047855303 -0.006871526 -0.0058972905 -0.008068054
0001a0 6a 71 f4 3b 2b d4 7f 3b d6 59 09 bb 13 41 02 3b
       0.007459809 0.0039036374 -0.0020958087 0.0019875213
0001b0 02 73 f2 3b 6d 93 97 b9 ab 64 08 bc ef 2e c3 ba
       0.007398964 -0.00028910805 -0.008324782 -0.0014891307
0001c0 3e 81 c5 bb 96 43 13 3c cf 78 0e 3c 83 be 0a 3b
       -0.0060273698 0.008988282 0.008695795 0.0021170683
0001d0 a6 51 36 bc 47 12 4f b9 15 22 cc bb 1f 4c 6b bb
       -0.011127865 -0.00019747867 -0.006229649 -0.0035903526
0001e0 68 3d da 3c 63 5d 0c bc 55 d0 3a 3c 78 53 e0 3b
       0.026640609 -0.008567187 0.011402209 0.0068458878
0001f0 07 e8 98 bc 11 ea 9a bb 29 bd 00 b9 42 40 45 3b
       -0.018665327 -0.00472761 -0.00012277499 0.0030098115
